验证基于dressionPage实现百度扫码登录/ceshi/optimization_guide_model_store/31/63922A0C010C80A5/F7DB525842A2EEBD/model.tflite (tflite, 4388 bytes, 5 tensors)

model_51/normalization_43/truediv;model_51/normalization_43/Sqrt f4 [1, 6]
00000000: 6a7e 1a40 8a4a 2041 bdf1 113b 2e4a 353e
00000010: db19 443f 4c71 a73e
2.4139657 10.018198 0.0022269331 0.17704079 0.7660195 0.32703626

Const_1 f4 [1, 6]
00000000: 315b 613e 0a52 203c c7fe 0644 fb7a b040
00000010: 16d7 3340 8ac1 2e40
0.22007443 0.009785185 539.9809 5.5150123 2.8100028 2.7305627

model_51/dense_100/BiasAdd/ReadVariableOp f4 [32]
00000000: d97c b8be 0cc3 cfbe fd7b 36bf 47b8 fabe
00000010: 89a3 3abd 76d8 35bf b2eb b53d 2ad9 ccbd
00000020: 3ad8 27bf 045f 44be 38e7 06bf 59e7 1dbe
00000030: 5a11 36be b816 43bf 6f77 3abf 0d1b 35bf
00000040: f8ec 8abf ba71 873d cc29 08bf 19c3 a53d
00000050: b829 c83d 1a70 9dbf 89bf 97be ef01 a8bd
00000060: 7bdb f5be 59f9 3cbf 1960 fabe b711 43bf
00000070: 9438 9039 5a0e d6be bb40 84bf f21e 743d
-0.3603275 -0.40578496 -0.7128294 -0.48968717 -0.045566116 -0.7103342 0.08882846 -0.10002358
-0.6556431 -0.1917687 -0.5269656 -0.15420283 -0.17780057 -0.7620654 -0.7283849 -0.707444
-1.0853567 0.066134885 -0.53188777 0.080938525 0.09773582 -1.2299836 -0.29638317 -0.08203494
-0.48019013 -0.73817974 -0.48901442 -0.76198906 0.00027507974 -0.41807824 -1.0332254 0.059599824

model_51/dense_100/MatMul f4 [32, 6]
00000000: 889d 18be 321c 193d 2d45 96be 7ac4 c3be
00000010: 0ee8 623e bfc5 90be 4f3a 523d 4b18 e1bd
00000020: 254c 0a3d 8527 1dbf 508a 09bd 70c0 2cbf
00000030: da59 973c 15b6 b13b abce 1dbf 3958 23bd
00000040: 6791 363c 7ae7 ca3c 7db7 31bf c5c7 f53b
00000050: 3eec d13c 2c26 613c 9d9b 183e dc0c 1d3d
00000060: b274 11be 52cf 6bbe ff79 8dba c750 0cbf
00000070: 8652 afbc bff7 ce3d b06a 713c 330d 90bc
00000080: a610 20bf 8136 fe3b 4877 163a 9acd 243b
00000090: 113a 043e 1d28 40be c9b4 2c3e 6487 8b3e
000000a0: c819 10be dd90 53bd 4c16 f93c 4a5c 203d
000000b0: 4baf 033e d403 6cbe 3608 03be 0a1c cf3e
000000c0: a316 373b 2c03 98bc 0158 16bf 9d7e 893c
000000d0: aa26 f4bb 47ab 3abc 77ea 7ebc 61df ddbd
000000e0: f5d2 c93d 82c3 4dbf 172a 173e 2078 d4be
000000f0: 5ee9 21be 3526 43bd 8647 e1be ea1d 843c
00000100: 4f79 0b3d 0634 52bd eb80 90bc cd75 03be
00000110: 07ce ae3d 2e46 0fbf 0dba e13d c783 96be
00000120: 5b84 ddbc cce2 95bd c00b e23d 8b7f 4cbf
00000130: 5335 1c3e aa30 c7be 204f a63a a207 81bc
00000140: 8bdc 28bf 18aa 1b3c 3cd7 6e3b d118 17bc
00000150: 9c2e 48bb 4a2c 41bc 1eac 21bf 30c7 833c
00000160: 1474 233b 4f97 edbb 4ea1 77bc 6c1c 9f3c
00000170: 9072 32bf e2cd 3fbc 6c9e f53b 5e66 b13c
00000180: 60c5 3e3e 5484 923d 9711 393e 852a eb3c
00000190: e38d 49bf 4916 49bd 922b 0ebd ace4 15be
000001a0: fe97 30bd dec5 2fbf 748c 2ebd ccb1 b43d
000001b0: 94a7 babc 3fc2 12bd b084 efbe 1db9 b03c
000001c0: 1ffd 7c3c b375 47be ec37 2dbd 4277 95bd
000001d0: 84a2 62bd f41b 47bf 7e7f 40bd abba d83d
000001e0: bb1a 1e3e 8e36 69be 027c 273e 35e5 8c3e
000001f0: 33c3 0ebe 5075 8bbc 3e74 52be 35c0 0cbf
00000200: 99db 0b3d 8b39 913e 1837 d83c 8131 12be
00000210: e45c 8fbe 5026 85bd d525 f03d ea25 8d3c
00000220: 6115 97be 1a60 963c bab8 ddbc 6e32 03be
00000230: 3e14 8c3e a85c 1c3b cd89 b0be 90cb f63d
00000240: bebd fe3d 2475 4dbd dd67 883d d2c7 52bf
00000250: 4526 3c3e 48db 93be 2346 b63a 1e58 4cbc
00000260: 4cee 22bf b80a f53b dc03 5aba cf1c 96bb
00000270: afcb 2f3c f765 46bc 5936 07bd 0aa1 cfbe
00000280: 2054 20bf 55b0 613e 329c b53b e5ef a83c
00000290: 43d8 30bf 25da 07be 0661 113d 5d6d 833d
000002a0: 8eb7 78be ef43 8bbe 5543 18bd 450d 05bf
000002b0: 01d8 9bbd d6ad ab3d 2d2f 873d f7a7 78bd
000002c0: ab64 fcbe eb33 163d 02a5 0dbc ed3c 97be
000002d0: 35e1 0d3e 0a88 9a3d ae36 933e f0fe 913c
000002e0: 9988 25bf 525e 71bd 772e 43bd 40be a2be
000002f0: fd29 55bd 5ceb 3bbf 0116 51bd d194 bf3d
-0.14903843 0.037380405 -0.29349652 -0.38235837 0.22158834 -0.28275868 0.05132514 -0.10990962
0.033764023 -0.61388427 -0.03357917 -0.67481136 0.018475462 0.005423317 -0.61643475 -0.039879058
0.011143065 0.02476858 -0.69420606 0.007500621 0.025625344 0.013742011 0.14903112 0.03834234
-0.14204672 -0.23028305 -0.0010793804 -0.54810756 -0.021401655 0.101058476 0.014734909 -0.017584419
-0.62525403 0.007757962 0.000573982 0.0025146962 0.12912776 -0.18765302 0.16865839 0.27251732
-0.14072335 -0.051651824 0.03040614 0.039150514 0.12859838 -0.23048335 -0.12796101 0.4045108
0.0027937077 -0.0185562 -0.58728033 0.016784007 -0.007450898 -0.011393375 -0.01555883 -0.10833622
0.0985469 -0.80376446 0.1476215 -0.41497898 -0.15811679 -0.04764386 -0.4399988 0.016127545
0.034051236 -0.051319145 -0.017639598 -0.12837906 0.0853539 -0.5596646 0.110218145 -0.29397413
-0.027040651 -0.07318649 0.110373974 -0.79882115 0.15254717 -0.38904315 0.0012688376 -0.01575071
-0.6596152 0.009501003 0.0036444208 -0.009222225 -0.003054536 -0.0117903445 -0.63153255 0.016086191
0.0024941014 -0.0072507034 -0.015114142 0.019422732 -0.6970606 -0.011706801 0.007495692 0.021655258
0.1862998 0.07154146 0.18073116 0.028706798 -0.78732127 -0.04909352 -0.03470952 -0.14638013
-0.0431137 -0.68661296 -0.042614415 0.088229746 -0.022784986 -0.03582978 -0.4678092 0.021572644
0.015441208 -0.19478492 -0.04228966 -0.07298137 -0.05533077 -0.7777703 -0.046996586 0.10582479
0.15439884 -0.22774717 0.16355899 0.2751862 -0.1394165 -0.017023712 -0.20552155 -0.54980785
0.03414497 0.28364214 0.026393458 -0.14276697 -0.28000557 -0.06501448 0.11725966 0.017229993
-0.29508498 0.018356372 -0.027065624 -0.12812206 0.27359194 0.0023858938 -0.34480134 0.12050545
0.12438534 -0.050160542 0.06660435 -0.8233615 0.18373974 -0.28878236 0.00139064 -0.012472181
-0.6364486 0.0074780844 -0.0008316615 -0.004581071 0.010729714 -0.012109271 -0.033010814 -0.4055255
-0.62628365 0.22039922 0.0055423016 0.020622203 -0.6907999 -0.1326681 0.03549292 0.06417344
-0.2428877 -0.27200267 -0.037173588 -0.5197337 -0.07609559 0.08382766 0.06600795 -0.06070706
-0.49295554 0.036670607 -0.008645298 -0.2953867 0.13855441 0.07545479 0.28752655 0.017821759
-0.64661556 -0.05892784 -0.047651734 -0.31785774 -0.052041996 -0.73406005 -0.051046375 0.09354556

model_51/dense_101/MatMul f4 [1, 32]
00000000: 0cc2 383e 3b39 e3be 92a8 0d40 7f19 453e
00000010: a70a 1ebe 6e74 3c40 2e7d 6f3d 7aa7 913d
00000020: 01be 1340 436f 23be 3585 633f 2744 60be
00000030: 2587 2ebe ac9d 2340 0c23 2d40 ceed 383f
00000040: ac42 d4bf d55f d8bd 094b 693f 673a c7bd
00000050: fb68 c43d a7e0 c7bf f2f5 5e3e 85c1 ad3d
00000060: 24cd 0dbf 0003 3840 0bf5 febf e97f 5f3f
00000070: 70e3 c6bd c5af a23e f7c1 c9bf 596a dfbd
0.18042773 -0.443796 2.2134137 0.19248007 -0.15433751 2.9446063 0.05846899 0.07112022
2.308472 -0.15960412 0.8887513 -0.21900998 -0.17043741 2.5564985 2.705264 0.7223786
-1.6582847 -0.105651535 0.9113012 -0.09727936 0.09590336 -1.5615433 0.21773508 0.084841765
-0.55391145 2.875183 -1.9918531 0.8730455 -0.09711349 0.31774727 -1.5762318 -0.10908956
