验证基于dressionPage实现百度扫码登录/ceshi/optimization_guide_model_store/20/63922A0C010C80A5/C6957638C60A6CF3/model.tflite (tflite, 64852 bytes, 5 tensors)

arith.constant f4 [1, 64]
-0.1695757 -0.20451483 0.06279998 0.3708366 0.15368856 0.016261099 -0.25290495 -0.26070377
0.17691177 -0.31062487 -0.09416003 -0.05823235 -0.29484987 0.24786946 -0.03138603 -0.21107087
0.048097916 0.2236698 0.12542374 -0.025300875 -0.035814147 -0.22177073 0.43363374 -0.21770528
0.26811203 -0.091762535 0.039944913 0.0035669073 0.26836652 -0.35039762 0.18148647 -0.32989272
-0.17189546 0.18579988 0.26916766 -0.31451422 0.17323136 -0.03716731 0.1804483 -0.28408438
-0.19487923 0.08129935 0.3320653 0.32283857 0.16985571 0.3083085 0.2948019 -0.10923498
-0.3338327 0.27107927 0.018329991 0.13913497 0.2110924 0.027507767 0.07579968 -0.041692693
-0.035491813 -0.19213739 0.10039454 -0.0716678 0.373912 -0.2329741 -0.3414529 -0.1947656
00000000: 41a5 2dbe 566c 51be 479d 803d 4bde bd3e
00000010: 8960 1d3e ff35 853c c27c 81be f77a 85be
00000020: 5c28 353e 390a 9fbe f9d6 c0bd 0b85 6ebd
00000030: 90f6 96be 7ed1 7d3e a38e 00bd f622 58be
00000040: 5202 453d b209 653e 156f 003e c843 cfbc
00000050: dbb1 12bd de17 63be 3e05 de3e 22ee 5ebe
00000060: fb45 893e ffed bbbd 479d 233d c6c2 693b
00000070: 5667 893e 5167 b3be 97d7 393e b3e7 a8be
00000080: 5d05 30be 5342 3e3e 58d0 893e 0208 a1be
00000090: 9063 313e c03c 18bd 70c7 383e 8273 91be
000000a0: 6c8e 47be 4680 a63d 7704 aa3e 194b a53e
000000b0: a8ee 2d3e 9dda 9d3e 46f0 963e 97b6 dfbd
000000c0: 1fec aabe e7ca 8a3e c728 963c 6679 0e3e
000000d0: 9b28 583e f857 e13c dd3c 9b3d f5c5 2abd
000000e0: dd5f 11bd aabf 44be a79b cd3d 91c6 92bd
000000f0: 6571 bf3e c390 6ebe ead2 aebe a270 47be

arith.constant1 f4 [64, 128]
0.011928378 0.046932764 -0.06792142 -0.043125156 0.07486103 -0.08829057 -0.015686002 -0.07599705
-0.18772231 0.13492453 0.12939394 0.07373575 0.099330924 -0.044791702 -0.10283575 0.16860656
-0.060732722 -0.058388796 0.17767413 0.12957533 0.044527527 0.111465804 -0.037972156 -0.14228636
0.004679246 0.037214037 0.06383227 0.016706927 0.007089053 -0.020152418 0.14269035 -0.17228393
0.09626883 -0.050197396 0.04361631 -0.09168513 -0.005312336 -0.14678922 0.011536408 0.018817684
0.12190317 -0.06617441 0.15074943 0.08078502 0.17105764 0.11835975 -0.12755987 0.1461879
-0.07055102 -0.030798422 0.19980593 0.11242725 -0.18410738 0.024457678 0.030441992 0.108290836
-0.099018954 -0.08215633 0.12306309 -0.17841089 0.06561315 0.017032513 0.14421411 -0.11293421
-0.053773656 -0.05636828 0.10684303 0.14874946 -0.07148263 0.15011431 0.03944287 0.13802283
-0.068552226 0.13666557 -0.08637072 0.07243125 -0.15202639 -0.038302295 -0.03472743 0.041177664
-0.20024389 -0.13014135 -0.09070704 -0.023603112 0.13986605 0.068593435 -0.10008825 -0.10041823
-0.07662038 -0.15353791 -0.16203101 0.10982221 0.04972802 -0.03167925 -0.18096758 0.06925092
-0.0051774965 -0.0068792216 -0.082334526 0.059822403 0.054575443 -0.04442538 -0.11648194 0.0736636
-0.15428996 -0.15598652 0.07624079 0.013835031 -0.08292952 0.13608891 0.14930816 -0.0720656
-0.15079172 -0.021911586 -0.099215984 0.16743195 0.03416829 0.08205883 -0.07465722 0.03371898
-0.066172354 0.054366745 0.0030615213 0.02776479 0.052209634 -0.05570878 -0.21437804 -0.15964107
0.051196314 0.03264438 0.18322125 0.17054814 0.15444875 -0.106045306 -0.11447871 0.022819743
0.013401368 0.0039870283 -0.025288431 0.05947984 0.18823788 0.15842207 0.013781298 -0.112613045
0.0043496555 0.007862732 0.12083953 0.12354268 -0.19483952 0.010714536 -0.090668626 -0.05021488
0.15357551 0.13395993 0.11974731 -0.04680986 0.03318233 0.012873258 0.16837023 -0.09592266
-0.02413482 0.11672803 -0.1942481 0.12503411 0.10368534 -0.064616576 -0.040654417 -0.098614804
-0.14204842 0.022644838 0.10244472 -0.06401303 0.13304138 0.07673616 0.021729989 0.05298443
0.16650976 0.030681225 0.06617887 0.008269541 0.090158 -0.084576964 -0.12539592 0.095470384
-0.12836267 0.072745495 -0.055611942 -0.16774282 -0.14997427 0.0646986 -0.047819924 0.110488474
0.11785402 0.088978 -0.19298275 0.084613875 0.19010752 0.10003798 -0.04060478 0.028622687
-0.08556317 0.023122871 0.11036851 -0.08547127 -0.03828912 0.11291109 -0.0111543825 -0.065052986
0.1436718 -0.0094718095 0.0586649 0.056559656 0.0215052 -0.12416419 0.028074265 -0.0897067
-0.022091052 -0.09435857 0.08275023 0.034545813 -0.031856094 0.006437952 -0.04749987 0.1312354
0.07884417 0.07083245 -0.17405939 0.014290413 -0.1680223 0.08294675 0.0728611 -0.040236056
-0.03537602 0.09192023 0.11438878 -0.13168857 0.05154805 -0.023496363 0.14262244 -0.08944859
0.15464546 0.03582406 0.14520729 -0.06810021 0.0784951 -0.032038018 -0.021991469 0.13022524
-0.118333064 0.07372692 -0.027376454 0.12912165 -0.1511173 -0.118898146 -0.045812093 0.17332302
00000000: 3e6f 433c 923c 403d 631a 8bbd 01a4 30bd
00000010: bd50 993d b0d1 b4bd ee7f 80bc 57a4 9bbd
00000020: 473a 40be a829 0a3e d87f 043e c502 973d
00000030: 036e cb3d 8177 37bd 8d9b d2bd 33a7 2c3e
00000040: e0c2 78bd 1729 6fbd 35f0 353e 65af 043e
00000050: 7f62 363d 2f48 e43d b188 1bbd 84b3 11be
00000060: 5c54 993b bf6d 183d 7eba 823d f7dc 883c
00000070: 494b e83b af16 a5bc 6b1d 123e 336b 30be
00000080: 9828 c53d c99b 4dbd 04a7 323d 6ac5 bbbd
00000090: 1b13 aebb ea4f 16be 3403 3d3c 8b27 9a3c
000000a0: 5fa8 f93d 7386 87bd 0f5e 1a3e 9e72 a53d
000000b0: bc29 2f3e 9966 f23d 0e9f 02be 48b2 153e
000000c0: 0e7d 90bd f94c fcbc ed99 4c3e 4240 e63d
000000d0: a586 3cbe 785b c83c 7c61 f93c 96c7 dd3d
000000e0: 73ca cabd 9441 a8bd 8008 fc3d 58b1 36be
000000f0: 3060 863d c587 8b3c ddac 133e 0d4a e7bd
00000100: c441 5cbd 6de2 66bd 85d0 da3d c751 183e
00000110: 7c65 92bd 91b7 193e d98e 213d db55 0d3e
00000120: 1c65 8cbd 0ff2 0b3e 22e3 b0bd d656 943d
00000130: ceac 1bbe dee2 1cbd 5a3e 0ebd e9a9 283d
00000140: bc0c 4dbe c643 05be 9dc4 b9bd 505b c1bc
00000150: 0c39 0f3e b77a 8c3d 12fb ccbd 13a8 cdbd
00000160: 25eb 9cbd 0b39 1dbe 75eb 25be 78ea e03d
00000170: 9caf 4b3d 1ac2 01bd 914f 39be 6dd3 8d3d
00000180: fda7 a9bb 186b e1bb 019f a8bd 5608 753d
00000190: 808a 5f3d 63f7 35bd 158e eebd f1dc 963d
000001a0: 30fe 1dbe eeba 1fbe 2224 9c3d 53ac 623c
000001b0: f4d6 a9bd e45a 0b3e 3de4 183e 2197 93bd
000001c0: 2569 1abe ed7f b3bc c031 cbbd 4873 2b3e
000001d0: 0df4 0b3d 760e a83d e2e5 98bd ea1c 0a3d
000001e0: 5f85 87bd aaaf 5e3d cea3 483b fc72 e33c
000001f0: c5d9 553d e42e 64bd eb85 5bbe f378 23be
00000200: 3ab3 513d 1db6 053d 5a9e 3b3e 2ca4 2e3e
00000210: d027 1e3e 482e d9bd d073 eabd 78f0 ba3c
00000220: 6991 5b3c 9ea5 823b af29 cfbc 22a1 733d
00000230: 6ec1 403e 6539 223e f4ca 613c aba1 e6bd
00000240: 8e87 8e3b b0d2 003c b77a f73d f203 fd3d
00000250: 0384 47be 058c 2f3c 79b0 b9bd 1eae 4dbd
00000260: e642 1d3e cb2c 093e 143e f53d b2bb 3fbd
00000270: 32ea 073d 5cea 523c 3f69 2c3e 1973 c4bd
00000280: 63b6 c5bc 1b0f ef3d f9e8 46be f108 003e
00000290: fb58 d43d b255 84bd 3f85 26bd 8ff6 c9bd
000002a0: 2475 11be ab81 b93c 8ace d13d 4319 83bd
000002b0: 003c 083e d927 9d3d 1703 b23c 3406 593d
000002c0: 8981 2a3e 3157 fb3c ca88 873d f87c 073c
000002d0: c2a4 b83d b036 adbd ca67 00be fa85 c33d
000002e0: 8171 03be 97fb 943d 59c9 63bd c6c4 2bbe
000002f0: db92 19be b380 843d d3de 43bd c847 e23d
00000300: 735d f13d 193a b63d 459d 45be 0a4a ad3d
00000310: 8cab 423e b6e0 cc3d 3351 26bd 207a ea3c
00000320: be3b afbd 2d6c bd3c e308 e23d 900b afbd
00000330: 0dd5 1cbd ee3d e73d dfc0 36bc 803a 85bd
00000340: b31e 133e a62f 1bbc 9b4a 703d 19ab 673d
00000350: ac2b b03c cb49 febd 00fc e53c 25b8 b7bd
00000360: 4bf8 b4bc 113f c1bd f478 a93d e97f 0d3d
00000370: 897b 02bd 75f5 d23b 398f 42bd 9362 063e
00000380: 0d79 a13d 9b10 913d a03c 32be 5622 6a3c
00000390: 0a0e 2cbe fcdf a93d 3338 953d 90ce 24bd
000003a0: 72e6 10bd ac40 bc3d aa44 ea3d 5ed9 06be
000003b0: 0c24 533d 727b c0bc 9e0b 123e d330 b7bd
000003c0: 615b 1e3e 40bc 123d 38b1 143e 1f78 8bbd
000003d0: 0ac2 a03d 4c3a 03bd 7427 b4bc c459 053e
000003e0: 9b58 f2bd 24fe 963d 9644 e0bc 7738 043e
000003f0: 7ebe 1abe df80 f3bd 76a5 3bbd 977b 313e

arith.constant2 f4 [128, 12]
0.07714989 0.09266306 0.017225089 -0.16830166 0.16176775 -0.14807756 0.0064451303 0.08919152
0.03795616 0.13146715 0.034800284 0.0045947875 0.03540623 0.024035078 -0.12703806 0.17831436
0.123278186 -0.1643106 0.031959943 0.19149753 0.06826644 0.055493217 -0.19373895 0.20881525
0.16837192 -0.051361267 -0.00015473875 -0.10705103 -0.19759522 -0.1342025 0.07939624 -0.10790813
0.07721175 0.15557899 -0.06002316 0.19219925 0.02957327 0.094630904 -0.05883345 0.15549383
0.11331994 0.009757724 0.23612528 0.20067811 0.17821792 -0.1545178 0.14100057 0.058031287
0.13397992 -0.19851744 0.100637496 -0.034944866 0.11821897 -0.14112717 0.14697917 0.08465849
-0.04977027 0.016186865 0.11153787 0.052964535 0.014700545 -0.18633297 -0.16716725 0.13699518
0.1686166 -0.019499699 -0.07579934 0.11623945 0.07973799 -0.18591213 -0.087552845 -0.1632775
0.00010080445 -0.005452848 0.007138239 -0.027832465 -0.0646037 0.042643536 0.010881156 -0.11985441
0.021057984 -0.113027304 -0.0876639 -0.17969906 0.1273391 -3.5976598e-05 -0.052378498 -0.03912086
-0.13461274 0.09455946 0.10674321 0.0868911 0.17425719 -0.24084635 0.1433235 -0.00838075
0.09247373 0.083399884 -0.18921661 0.1465896 0.06360275 0.09499455 0.0045241606 0.11600474
-0.017260564 0.039475292 0.0181576 0.17627837 0.12773661 -0.20241132 -0.0454008 0.010206643
0.095542 -0.17016146 -0.16265349 -0.23195331 -0.15108739 -0.15804796 -0.07718307 -0.012152911
0.038217023 -0.16960843 -0.09007004 -0.042801175 0.119720034 0.09128172 -0.22477627 -0.008268581
0.09439036 0.20322052 -0.09022657 0.009191172 0.0606534 -0.0035497376 -0.038817164 0.107902296
-0.046700343 0.15498891 -0.12453256 0.1970159 -0.026845813 -0.030053105 -0.015530674 -0.24660076
0.19798324 0.19699185 -0.14426832 0.10716626 0.1268495 0.1289608 -0.00020830399 0.15705886
0.03433843 -0.036279827 0.00196221 -0.0057103084 -0.16358924 -0.08437282 -0.09946156 -0.085139446
0.049413484 -0.18041788 0.14549287 -0.19211955 0.07627139 -0.089188226 0.12058119 -0.22898611
0.023780283 -0.17046817 0.10367346 0.053353287 0.058066715 -0.009622953 0.15981664 0.06560766
-0.03240979 0.024115155 -0.016107582 0.026254784 0.06730543 -0.10604826 0.01894079 0.09903214
0.097477324 0.041746225 0.16171458 -0.149325 -0.18686326 0.09975009 0.19734761 -0.14009494
-0.05243275 0.1083598 -0.13921334 -0.07469851 0.09024016 -0.057642452 -0.119115815 0.07423793
0.16393466 0.03117867 0.0051389155 0.06368871 0.11981577 -0.12409131 -0.22535565 -0.09456265
0.095165975 0.02230652 0.18227145 0.105068006 0.027387671 0.050466403 0.23976049 0.12422013
0.18896413 0.083641894 -0.067154296 0.1181145 0.22475147 -0.1583153 0.103928484 0.14585513
0.068230756 0.20204078 0.12630253 -0.2613862 0.18919024 0.08925809 0.19334501 -0.15328452
0.12761155 -0.16169497 -0.054462787 -0.18415654 0.10767382 -0.13171247 -0.034742855 0.14786513
-0.16690816 -0.041197058 -0.0001070702 -0.102268204 -0.061567653 0.24221213 0.0042917226 0.177163
-0.035824057 0.09209992 -0.06862095 -0.12842283 0.073736824 -0.11658236 -0.0696678 0.19277501
00000000: c300 9e3d 21c6 bd3d a11b 8d3c 4557 2cbe
00000010: 72a6 253e a5a1 17be ac31 d33b 0baa b63d
00000020: eb77 1b3d 539f 063e be8a 0e3d df8f 963b
00000030: 1f06 113d 36e5 c43c 4416 02be 0a98 363e
00000040: 4679 fc3d 0a41 28be 6ee8 023d ee17 443e
00000050: 46cf 8b3d db4c 633d 8163 46be aad3 553e
00000060: b069 2c3e 3160 52bd 5e41 22b9 923d dbbd
00000070: 6756 4abe 616c 09be 7f9a a23d f0fe dcbd
00000080: 3221 9e3d 1950 1f3e d8da 75bd e1cf 443e
00000090: a443 f23c d9cd c13d 58fb 70bd c639 1f3e
000000a0: 4914 e83d dcde 1f3c d3ca 713e 907e 4d3e
000000b0: c27e 363e ea39 1ebe 7462 103e 37b2 6d3d
000000c0: 0832 093e 2848 4bbe 081b ce3d 5922 0fbd
000000d0: ca1c f23d a483 10be b581 163e 6e61 ad3d
000000e0: e9db 4bbd 519a 843c f76d e43d 57f1 583d
000000f0: 8eda 703c 12ce 3ebe e42d 2bbe 7748 0c3e
00000100: d4a9 2c3e d5bd 9fbc af3c 9bbd f30e ee3d
00000110: ac4d a33d c05f 3ebe e84e b3bd 3832 27be
00000120: fa66 d338 cead b2bb e4e7 e93b e900 e4bc
00000130: f24e 84bd fdaa 2e3d e046 323c 3b76 f5bd
00000140: cb81 ac3c dc7a e7bd 2189 b3bd 0803 38be
00000150: 2e65 023e 94e5 16b8 d68a 56bd 323d 20bd
00000160: ecd7 09be 64a8 c13d 2f9c da3d f6f3 b13d
00000170: 7a70 323e 6da0 76be 65c3 123e 6a4f 09bc
00000180: de62 bd3d 8fcd aa3d 00c2 41be 961b 163e
00000190: 2942 823d 818c c23d 693f 943b e593 ed3d
000001a0: 0766 8dbc d8b0 213d 3fbf 943c 5182 343e
000001b0: 63cd 023e ea44 4fbe 30f6 39bd c339 273c
000001c0: 86ab c33d ce3e 2ebe a38e 26be 2b85 6dbe
000001d0: a7b6 1abe 53d7 21be 2812 9ebd 011d 47bc
000001e0: 7489 1c3d d5ad 2dbe a476 b8bd 4950 2fbd
000001f0: c72f f53d e9f1 ba3d c02b 66be f178 07bc
00000200: bc4f c13d 0a19 503e b5c8 b8bd 9296 163c
00000210: b36f 783d b7a2 68bb bffe 1ebd e1fb dc3d
00000220: dc48 3fbd 6ab5 1e3e ed0a ffbd 89be 493e
00000230: c0eb dbbc ee31 f6bc 5e74 7ebc e984 7cbe
00000240: 1ebc 4a3e 3bb8 493e 13bb 13be fc79 db3d
00000250: d6e4 013e 4d0e 043e 2d6c 5ab9 0ad4 203e
00000260: 74a6 0c3d 289a 14bd 6c98 003b 8a1d bbbb
00000270: f083 27be a8cb acbd 81b2 cbbd 975d aebd
00000280: cb65 4a3d 77bf 38be 15fc 143e fdba 44be
00000290: 2d34 9c3d 51a8 b6bd 45f3 f63d 567b 6abe
000002a0: dece c23c 358f 2ebe c052 d43d fa88 5a3d
000002b0: 5dd7 6d3d 97a9 1dbc f9a6 233e 4f5d 863d
000002c0: 21c0 04bd 258d c53c 0cf4 83bc 4614 d73c
000002d0: 6ed7 893d d52f d9bd b729 9b3c 5dd1 ca3d
000002e0: 31a2 c73d 17fe 2a3d 8298 253e a7e8 18be
000002f0: 1559 3fbe c649 cc3d 7e15 4a3e 0c75 0fbe
00000300: b9c3 56bd beeb dd3d f18d 0ebe 88fb 98bd
00000310: d5cf b83d 7e1a 6cbd fef2 f3bd 0e0a 983d
00000320: 7dde 273e 696a ff3c 5964 a83b 3a6f 823d
00000330: f861 f53d 9623 febd a2c3 66be 10aa c1bd
00000340: 61e6 c23d 2abc b63c 5ea5 3a3e e52d d73d
00000350: 1c5c e03c dcb5 4e3d c683 753e 2067 fe3d
00000360: d07f 413e 714c ab3d 3188 89bd 04e6 f13d
00000370: 4025 663e 681d 22be 75d8 d43d 0c5b 153e
00000380: 91bc 8b3d c7e3 4e3e 7355 013e 69d4 85be
00000390: 16bb 413e f2cc b63d 3cfc 453e 9ef6 1cbe
000003a0: 9aac 023e 5e93 25be 5f14 5fbd 8893 3cbe
000003b0: 1784 dc3d a2df 06be 864e 0ebd f569 173e
000003c0: f9e9 2abe 3fbe 28bd e08a e0b8 fe71 d1bd
000003d0: 5d2e 7cbd 7506 783e 94a1 8c3b 386a 353e
000003e0: 3fbc 12bd e29e bc3d 2489 8cbd 4681 03be
000003f0: 5503 973d bbc2 eebd fead 8ebd d066 453e

arith.constant29 f4 [64]
0.004820962 -0.09736304 -0.017462242 -0.06864635 0.04314541 0.0063574775 -0.04165027 -0.042470027
0.040122345 -0.02813311 0.030587193 -0.0056981943 -0.060912658 0.064592294 -0.011052592 -0.007122426
-0.009224194 0.05163703 0.024476549 -0.013838048 -0.01671121 -0.042519078 -0.088854104 -0.022653084
0.046929676 -0.020460105 0.025595503 -0.03178242 0.05579236 0.024876935 0.011773204 -0.051948335
-0.08305338 0.028757008 0.069929816 -0.0025991092 0.025135936 -0.008777531 0.073780574 -0.04715035
-0.03833109 -0.009704944 0.09745867 0.019468907 -0.051288836 0.08473149 0.10288509 -0.012041239
-0.036600634 0.08531986 -0.007936171 0.008095859 0.050393384 0.019544061 0.021846378 -0.005152953
0.0006682567 -0.01873742 0.068437465 0.002316348 0.1174285 -0.057815015 0.022926431 -0.03815014
00000000: 29f9 9d3b 4666 c7bd fa0c 8fbc 7596 8cbd
00000010: 3eb9 303d 6352 d03b 7999 2abd 0df5 2dbd
00000020: 5457 243d 6877 e6bc fe91 fa3c ebb7 babb
00000030: 8d7f 79bd f748 843d ee15 35bc 3d63 e9bb
00000040: 1321 17bc 5a81 533d 0b83 c83c fbb8 62bc
00000050: f3e5 88bc 7c28 2ebd 24f9 b5bd f692 b9bc
00000060: 5539 403d f39b a7bc a9ad d13c 482e 02bd
00000070: 8886 643d b7ca cb3c 66e4 403c c7c7 54bd
00000080: e417 aabd d193 eb3c 5d37 8f3d d155 2abb
00000090: e1e9 cd3c a2cf 0fbc 451a 973d ba20 41bd
000000a0: 1001 1dbd 7c01 1fbc 6998 c73d 427d 9f3c
000000b0: 3e14 52bd b487 ad3d 6bb5 d23d 9e48 45bc
000000c0: 8cea 15bd 2ebc ae3d b706 02bc 7ea4 043c
000000d0: 4b69 4e3d de1a a03c 2df7 b23c 1ada a8bb
000000e0: f32d 2f3a 387f 99bc f128 8c3d dfcd 173b
000000f0: 5a7e f03d 70cf 6cbd 36d0 bb3c 5243 1cbd

arith.constant30 f4 [128]
-0.113385476 0.0035038837 -0.058389787 -0.009308428 -0.10947584 0.007569084 0.013579127 0.02559641
-0.13369727 0.06269462 0.0049489196 0.019361125 -0.25278756 -0.032457262 -0.025357336 0.05188014
-0.1830546 0.053636968 0.059349533 0.037274666 -0.013702014 0.009896259 0.012976861 -0.05639328
0.02920333 -0.07328526 -0.13306575 -0.019996224 -0.07035428 0.039580423 -0.039792757 -0.08087563
-0.017165594 0.033392005 0.058489382 -0.012975694 0.018034095 0.013322096 -0.12395213 0.059788622
-0.0009180273 0.0011569096 -0.054114986 -0.095464095 -0.06350402 0.053637892 0.03353273 0.01009851
-0.065005705 -0.024729624 0.0043424116 -0.023784634 -0.030576395 0.015809191 -0.08707528 0.023427622
0.00037898388 -0.042010006 -0.021106154 -0.16716227 0.021682175 -0.22999401 -0.039127134 0.0139445765
-0.04438809 0.08180989 -0.07817006 -0.008280265 -0.057472143 -0.007425208 0.0009080008 0.04847057
0.044187855 0.01858409 0.082854375 0.059098158 -0.053744294 -0.03475586 0.011170334 -0.006575904
0.04501737 0.028019303 -0.010163617 -0.095350236 0.045712527 0.04596071 -0.040302 -0.06331476
0.04217419 -0.005979184 -0.043733854 -0.08429356 0.06883742 -0.017680636 0.046978146 0.04327537
0.12088762 0.04227316 0.091002524 -0.04793691 0.015377215 0.043122314 -0.11926068 0.036994707
-0.012263558 -0.017046697 0.021615416 -0.061686657 0.05228899 -0.10635741 -0.03266185 -0.11838472
-0.08652195 0.031545855 -0.1918265 -0.0066170036 -0.035888124 0.013130065 0.057839252 0.05930059
0.03456972 0.010481719 -0.23891516 -0.028526802 0.045185197 0.054101374 0.038070217 -0.15719981
00000000: a536 e8bd 6aa1 653b 212a 6fbd 6082 18bc
00000010: df34 e0bd 1406 f83b fd7a 5e3c 90af d13c
00000020: f0e7 08be 0966 803d 8c2a a23b 399b 9e3c
00000030: 5f6d 81be e8f1 04bd 30ba cfbc 4580 543d
00000040: aa72 3bbe 70b2 5b3d 7f18 733d 52ad 183d
00000050: 6a7e 60bc eb23 223c e69c 543c a4fc 66bd
00000060: d23b ef3c 9516 96bd 6342 08be 1fcf a3bc
00000070: e815 90bd 151f 223d bbfd 22bd 1fa2 a5bd
00000080: dc9e 8cbc 0ec6 083d 9092 6f3d 0198 54bc
00000090: 3dbc 933c ec44 5a3c 9dda fdbd eae4 743d
000000a0: c5a7 70ba 72a3 973a ada7 5dbd ae82 c3bd
000000b0: 650e 82bd 68b3 5b3d 9e59 093d 3974 253c
000000c0: b621 85bd c895 cabc ca4a 8e3b fed7 c2bc
000000d0: 597b fabc 4782 813c 8654 b2bd 49eb bf3c
000000e0: 5bb2 c639 af12 2cbd d0e6 acbc 962c 2bbe
000000f0: d19e b13c 8d83 6bbe c643 20bd cb77 643c
00000100: 49d0 35bd f28b a73d a017 a0bd f3a9 07bc
00000110: e967 6bbd 294f f3bb e706 6e3a 1489 463d
00000120: 53fe 343d a93d 983c 8eaf a93d e910 723d
00000130: fa22 5cbd 295c 0ebd c703 373c ae7a d7bb
00000140: 2264 383d bd88 e53c 4d85 26bc fc46 c3bd
00000150: 0f3d 3b3d 4c41 3c3d b613 25bd 2bab 81bd
00000160: d8be 2c3d 08ed c3bb 4522 33bd 1aa2 acbd
00000170: a2fa 8c3d fbd6 90bc 286c 403d 8441 313d
00000180: ee93 f73d 9f26 2d3d 885f ba3d 7e59 44bd
00000190: b7f0 7b3c 06a1 303d f23e f4bd c387 173d
000001a0: 17ed 48bc 84a5 8bbc d012 b13c 26ab 7cbd
000001b0: fb2c 563d ead1 d9bd 6fc8 05bd b073 f2bd
000001c0: 6c32 b1bd 3a36 013d 2b6e 44be 73d3 d8bb
000001d0: 6dff 12bd 7c1f 573c dae8 6c3d 2de5 723d
000001e0: fb98 0d3d 84bb 2b3c 2da6 74be 0ab1 e9bc
000001f0: 1d14 393d 6799 5d3d 84ef 1b3d fdf8 20be
