验证基于dressionPage实现百度扫码登录/ceshi/optimization_guide_model_store/32/63922A0C010C80A5/4F2324193B7B618F/model.tflite (tflite, 6228 bytes, 5 tensors)

sequential_2/normalization_2/truediv;sequential_2/normalization_2/Sqrt f4 [1, 27]
1.7223217e-09 2.1227665 3.6249852 2.2259287e-06 0.69385314 1.9624791 2.3840034 1.3764868
2.2205496 1.2923254 0.96335983 1.9191704 34.630886 15.246365 0.0033035846 0.0016679942
0.009453762 0.004266551 1.0079793 1.0583206 0.46977144 0.18768968 0.18794683 59.22257
67.14856 2.065289 0.00029643785
00000000: cfb6 ec30 68db 0740 c2ff 6740 2a61 1536
00000010: 5ca0 313f 8432 fb3f 8393 1840 b830 b03f
00000020: 7c1d 0e40 eb6a a53f c09e 763f 60a7 f53f
00000030: 0786 0a42 1cf1 7341 f480 583b 99a0 da3a
00000040: f4e3 1a3c 6dce 8b3b 7705 813f 0d77 873f
00000050: e285 f03e b931 403e 2275 403e e9e3 6c42
00000060: 104c 8642 b22d 0440 376b 9b39

Const f4 [1, 27]
1.3253127e+07 0.6675668 0.08298804 78333.84 -0.32755804 1.7663009 1.7989335 1.6555976
1.7885543 1.6244633 -0.53044397 1.7616159 0.0008345556 0.004320676 8.587601 65.74784
4.863133 37.547718 0.012682066 0.015745621 0.23519279 0.28747496 0.25175118 0.00026410038
0.00020599771 0.62471825 41.84511
00000000: 073a 4a4b a8e5 2a3f a2f5 a93d ecfe 9847
00000010: b0b5 a7be 2616 e23f 7443 e63f 9fea d33f
00000020: 59ef e43f 6aee cf3f 2dcb 07bf a17c e13f
00000030: 14c6 5a3a 7594 8d3b d066 0941 e57e 8342
00000040: c99e 9b40 dd30 1642 71c8 4f3c f6fc 803c
00000050: 61d6 703e eb2f 933e 88e5 803e f476 8a39
00000060: 1701 5839 89ed 1f3f 6561 2742

sequential_2/dense_4/BiasAdd/ReadVariableOp f4 [32]
-0.118895054 0.021626744 0.013503125 -0.13347447 -0.15297502 -0.13643903 -0.054753084 -0.08821244
-0.36291453 0.02074771 -0.124451995 -0.014296892 -0.072936095 -0.19281763 -0.25076 -0.0633365
-0.09939106 -0.19631368 -0.10423065 -0.14367335 0.26963988 -0.83647716 0.121871285 -0.08048322
-0.19476959 -0.79866946 -0.7628177 -0.019812154 0.014563532 -0.09560214 0.072805434 -0.033244513
00000000: 407f f3bd 922a b13c 363c 5d3c 88ad 08be
00000010: 7ca5 1cbe acb6 0bbe c544 60bd b9a8 b4bd
00000020: efcf b9be 1af7 a93c b0e0 febd 833d 6abc
00000030: 855f 95bd fc71 45be 9d63 80be 91b6 81bd
00000040: 8a8d cbbd 7406 49be e176 d5bd 1b1f 13be
00000050: 3d0e 8a3e 5e23 56bf a797 f93d 63d4 a4bd
00000060: ae71 47be 9a75 4cbf 0548 43bf 194d a2bc
00000070: e19b 6e3c 0ecb c3bd 041b 953d 662b 08bd

sequential_2/dense_4/MatMul f4 [32, 27]
0.016767038 -0.050953627 -0.28058526 0.16681777 -0.012803517 0.34947544 -0.069762886 0.27921838
0.09132288 -0.012276661 0.037458993 0.011462428 -0.009767667 -0.050940305 -0.16875081 0.026261142
0.1416394 -0.017462282 -0.576091 0.027047405 -1.0014821 0.1718426 0.41178945 0.015620407
-0.036172714 0.06570143 0.08910623 0.06921703 0.11386823 0.018301535 -0.69364923 0.15825772
-0.19249928 0.23467527 -0.12456751 0.08201557 0.1821535 0.12104176 0.060709685 -0.18433213
0.08650325 -0.04413499 -0.3447727 0.19823867 -0.27027658 0.25681773 -0.5194223 0.22561494
0.82477385 -0.85707814 0.13986652 -0.13632123 -0.01922918 -0.021080423 -0.06223978 -0.043629404
0.029665865 0.005480454 0.26542816 0.12284639 0.053623132 -0.2301094 0.2826544 0.09643738
0.055970404 0.10744409 -0.17347826 0.042584702 -0.29949528 0.08973281 0.15058409 -0.21739465
0.12803324 -0.012728315 0.13034995 1.07948 -0.9243564 -0.06817631 -0.03304517 0.035103373
0.061067156 -0.026762271 -0.006797231 0.07193716 -0.051439114 0.31496844 -0.1750604 0.17448771
0.44383267 -0.031981803 0.30264926 0.12713088 -0.015565694 0.03498237 0.011197453 -1.0298862
0.10933775 -1.5397707 -0.049515817 0.14083421 -0.28438506 -0.80495995 -0.26338187 0.58124757
-0.028194822 0.017471347 0.02873008 0.05652064 -0.18632996 -0.11977681 0.09259424 -0.15624008
-0.23724945 -0.09468416 0.026094884 0.06499308 0.18106282 0.2705557 -0.027086264 -0.29095954
-0.16216923 0.015455437 0.2247257 -0.27166012 -0.0998596 0.18193367 0.10880396 0.021762965
-0.00034916002 0.50004405 -0.5039746 0.10289906 -0.08501268 0.17768382 0.13007891 -0.6520917
-0.068254076 0.046281 0.11745689 0.2547273 -0.19165376 0.0051386375 0.20088631 0.25714046
0.10718318 -0.19062354 0.018439649 -0.014100302 -0.22160089 -0.16142629 0.0116210105 0.01538236
0.09214086 0.070676595 0.07791491 0.012189278 0.9226056 -1.1037979 -0.23833743 0.17406353
0.09653587 -0.027887966 -0.73300886 -0.0073381243 0.037703943 0.03370147 -0.026632594 -0.019932766
0.035576954 -0.11073966 -0.06488043 0.12470207 0.032555945 0.021575525 0.005606663 0.014212254
-0.18136325 -0.148434 0.19421288 -0.22836505 0.010625191 0.015013349 0.0012634824 1.4378618
-1.4386183 -0.032048386 -0.110206254 0.009587989 -0.019152613 0.010394448 0.018522559 -0.01758953
-0.6275066 -0.18352143 0.10814298 -0.062638886 0.27172753 0.055320445 -0.1232378 0.24628408
-0.15073898 -0.03812356 0.016762827 -0.041975506 -0.3150455 0.059086353 0.07472607 0.047652297
-0.016231967 -0.00335368 1.131195 -1.2104068 0.01899599 -0.030313995 -0.006820486 -0.02821694
-0.010745186 -0.42526296 0.03528688 -0.057232834 0.14880148 -0.064831905 -0.14913489 0.16609372
-0.10796284 -0.2867843 -0.012316134 0.22908355 -0.022965277 0.121286295 -0.21888256 -0.41596875
0.21524349 -0.3360618 0.1995285 0.15713987 0.14130722 0.8484323 -0.30958256 0.029482152
-0.019130372 0.0069762776 0.17291625 -0.10192722 0.15147747 -0.35288846 -0.2581392 -0.15765017
-0.06265419 0.21440548 -0.046749767 -0.06187579 0.14690885 0.19160797 -0.050087165 0.049455315
00000000: 075b 893c c0b4 50bd dfa8 8fbe 47d2 2a3e
00000010: d8c5 51bc 72ee b23e d8df 8ebd b6f5 8e3e
00000020: 7d07 bb3d 0c24 49bc 9a6e 193d e8cc 3b3c
00000030: 9108 20bc c8a6 50bd 03cd 2cbe 9b21 d73c
00000040: eb09 113e 0f0d 8fbc b37a 13bf 8592 dd3c
00000050: 9130 80bf 82f7 2f3e 11d6 d23e bcec 7f3c
00000060: d729 14bd 798e 863d 547d b63d a9c1 8d3d
00000070: bf33 e93d 1aed 953c ff92 31bf 500e 223e
00000080: 881e 45be b74e 703e 401d ffbd c7f7 a73d
00000090: 7286 3a3e bee4 f73d b8aa 783d 90c1 3cbe
000000a0: 9e28 b13d e4c6 34bd 0c86 b0be 14ff 4a3e
000000b0: b161 8abe 9d7d 833e dcf8 04bf 9a07 673e
000000c0: 6124 533f 7969 5bbf 2b39 0f3e cb97 0bbe
000000d0: 8386 9dbc dab0 acbc 24ef 7ebd bfb4 32bd
000000e0: d405 f33c 6195 b33b 33e6 873e e396 fb3d
000000f0: eea3 5b3d cca1 6bbe 14b8 903e f680 c53d
00000100: 3941 653d a60b dc3d 49a4 31be 4c6d 2e3d
00000110: 7257 99be d6c5 b73d b732 1a3e b49c 5ebe
00000120: 251b 033e 6c8a 50bc 757a 053e 672c 8a3f
00000130: 9fa2 6cbf 05a0 8bbd 5f5a 07bd 8ec8 0f3d
00000140: 8e21 7a3d 8d3c dbbc 4ebb debb ca53 933d
00000150: d2b1 52bd 8b43 a13e 0943 33be e8ac 323e
00000160: 093e e33e 5aff 02bd d8f4 9a3e 992e 023e
00000170: 4107 7fbc ac49 0f3d 8675 373c 50d3 83bf
00000180: 78ec df3d 3517 c5bf 19d1 4abd d836 103e
00000190: eb9a 91be db11 4ebf fdd9 86be a4cc 143f
000001a0: d4f8 e6bc 1220 8f3c 585b eb3c 3082 673d
000001b0: 48cd 3ebe 8b4d f5bd 0da2 bd3d 66fd 1fbe
000001c0: 85f1 72be c5e9 c1bd f0c4 d53c 181b 853d
000001d0: 8868 393e 4786 8a3e 03e4 ddbc a6f8 94be
000001e0: b10f 26be cd38 7d3c 7e1e 663e 0917 8bbe
000001f0: 3183 ccbd d24c 3a3e 9cd4 de3d 3f48 b23c
00000200: 770f b7b9 e302 003f 7b04 01bf bebc d23d
00000210: 211b aebd bff2 353e 6833 053e 7bef 26bf
00000220: cbc8 8bbd 2591 3d3d 3d8d f03d 9e6b 823e
00000230: e240 44be 0462 a83b 24b5 4d3e eaa7 833e
00000240: db82 db3d d132 43be bf0e 973c f404 67bc
00000250: 58eb 62be ef4c 25be 0d66 3e3c 4b06 7c3c
00000260: 59b4 bc3d e4be 903d da91 9f3d 8ab5 473c
00000270: e12f 6c3f 4049 8dbf ba0e 74be b63d 323e
00000280: 99b4 c53d 4e75 e4bc 78a6 3bbf a674 f0bb
00000290: 736f 1a3d 8d0a 0a3d 992c dabc 0a4a a3bc
000002a0: 24b9 113d 7acb e2bd 08e0 84bd cd63 ff3d
000002b0: 6259 053d 28bf b03c 19b8 b73b 84da 683c
000002c0: 4ab7 39be 15ff 17be bedf 463e 87d8 69be
000002d0: 4815 2e3c 8dfa 753c 6f9b a53a db0b b83f
000002e0: a524 b8bf 2b45 03bd d1b3 e1bd f116 1d3c
000002f0: f1e5 9cbc 7a4d 2a3c 9fbc 973c eb17 90bc
00000300: 46a4 20bf 0bed 3bbe 117a dd3d d148 80bd
00000310: df1f 8b3e b197 623d 1a64 fcbd e531 7c3e
00000320: 525b 1abe 7327 1cbd 3252 893c 82ee 2bbd
00000330: a54d a1be 8804 723d fb09 993d 0e2f 433d
00000340: e7f8 84bc 6ac9 5bbb ffca 903f 9cee 9abf
00000350: 7a9d 9b3c 0e55 f8bc 627e dfbb 3627 e7bc
00000360: 940c 30bc 11bc d9be fa88 103d fa6c 6abd
00000370: 6a5f 183e 97c6 84bd d1b6 18be 7914 2a3e
00000380: 9f1b ddbd 64d5 92be 9cc9 49bc e194 6a3e
00000390: ad21 bcbc f364 f83d c022 60be dbf9 d4be
000003a0: ca68 5c3e 4b10 acbe 3351 4c3e 46e9 203e
000003b0: d7b2 103e dc32 593f 9b81 9ebe 8e84 f13c
000003c0: 4cb7 9cbc 4299 e43b f510 313e 38bf d0bd
000003d0: e91c 1b3e ccad b4be d22a 84be 0c6f 21be
000003e0: d750 80bd 1c8d 5b3e af7c 3fbd 7871 7dbd
000003f0: 466f 163e e134 443e 3328 4dbd a891 4a3d

sequential_2/dense_5/MatMul f4 [1, 32]
-0.052587733 0.04602045 0.1224528 -0.14399679 0.06643517 0.09533079 0.41677403 0.267958
0.042774685 0.042822115 -0.41902184 0.064105414 0.1405041 -0.39961502 0.0705534 -0.15821862
0.33974546 -0.17384477 0.012378218 -0.18880527 0.026438933 -0.1587464 0.05846585 0.37152213
-0.3515172 -0.09870968 -0.06334177 0.05972741 0.047659524 0.28108913 0.03944121 -0.081059575
00000000: 3c66 57bd f07f 3c3d 89c8 fa3d e573 13be
00000010: 2a0f 883d ca3c c33d 6863 d53e ca31 893e
00000020: 8234 2f3d 3e66 2f3d 088a d6be b349 833d
00000030: 4fe0 0f3e 579a ccbe 4d7e 903d 1004 22be
00000040: 1ef3 ad3e 5d04 32be 02ce 4a3c 2b56 41be
00000050: 7696 d83c 6b8e 22be e379 6f3d 2638 be3e
00000060: 10fa b3be 4d28 cabd 54b9 81bd bba4 743d
00000070: a236 433d eaea 8f3e 1b8d 213d 9002 a6bd
